Model: "functional"
┏━━━━━━━━━━━━━━━━━━━━━┳━━━━━━━━━━━━━━━━━━━┳━━━━━━━━━━━━┳━━━━━━━━━━━━━━━━━━━┓
┃ Layer (type)        ┃ Output Shape      ┃    Param # ┃ Connected to      ┃
┡━━━━━━━━━━━━━━━━━━━━━╇━━━━━━━━━━━━━━━━━━━╇━━━━━━━━━━━━╇━━━━━━━━━━━━━━━━━━━┩
│ sequence_input      │ (None, 60, 5)     │          0 │ -                 │
│ (InputLayer)        │                   │            │                   │
├─────────────────────┼───────────────────┼────────────┼───────────────────┤
│ lstm (LSTM)         │ (None, 60, 64)    │     17,920 │ sequence_input[0… │
├─────────────────────┼───────────────────┼────────────┼───────────────────┤
│ layer_normalization │ (None, 60, 64)    │        128 │ lstm[0][0]        │
│ (LayerNormalizatio… │                   │            │                   │
├─────────────────────┼───────────────────┼────────────┼───────────────────┤
│ global_average_poo… │ (None, 64)        │          0 │ layer_normalizat… │
│ (GlobalAveragePool… │                   │            │                   │
├─────────────────────┼───────────────────┼────────────┼───────────────────┤
│ wide_input          │ (None, 2)         │          0 │ -                 │
│ (InputLayer)        │                   │            │                   │
├─────────────────────┼───────────────────┼────────────┼───────────────────┤
│ concatenate         │ (None, 66)        │          0 │ global_average_p… │
│ (Concatenate)       │                   │            │ wide_input[0][0]  │
├─────────────────────┼───────────────────┼────────────┼───────────────────┤
│ dense (Dense)       │ (None, 64)        │      4,288 │ concatenate[0][0] │
├─────────────────────┼───────────────────┼────────────┼───────────────────┤
│ dense_1 (Dense)     │ (None, 32)        │      2,080 │ dense[0][0]       │
├─────────────────────┼───────────────────┼────────────┼───────────────────┤
│ dense_2 (Dense)     │ (None, 10)        │        330 │ dense_1[0][0]     │
└─────────────────────┴───────────────────┴────────────┴───────────────────┘
 Total params: 74,240 (290.00 KB)
 Trainable params: 24,746 (96.66 KB)
 Non-trainable params: 0 (0.00 B)
 Optimizer params: 49,494 (193.34 KB)


Final Training Loss: 0.000132
Final Test Loss : 0.000221
Final Test MAE : 0.010874
