Model: "functional"
┏━━━━━━━━━━━━━━━━━━━━━┳━━━━━━━━━━━━━━━━━━━┳━━━━━━━━━━━━┳━━━━━━━━━━━━━━━━━━━┓
┃ Layer (type)        ┃ Output Shape      ┃    Param # ┃ Connected to      ┃
┡━━━━━━━━━━━━━━━━━━━━━╇━━━━━━━━━━━━━━━━━━━╇━━━━━━━━━━━━╇━━━━━━━━━━━━━━━━━━━┩
│ input_sequence      │ (None, 60, 5)     │          0 │ -                 │
│ (InputLayer)        │                   │            │                   │
├─────────────────────┼───────────────────┼────────────┼───────────────────┤
│ conv1d (Conv1D)     │ (None, 60, 64)    │      1,024 │ input_sequence[0… │
├─────────────────────┼───────────────────┼────────────┼───────────────────┤
│ conv1d_1 (Conv1D)   │ (None, 60, 64)    │     12,352 │ conv1d[0][0]      │
├─────────────────────┼───────────────────┼────────────┼───────────────────┤
│ batch_normalization │ (None, 60, 64)    │        256 │ conv1d_1[0][0]    │
│ (BatchNormalizatio… │                   │            │                   │
├─────────────────────┼───────────────────┼────────────┼───────────────────┤
│ bidirectional       │ (None, 60, 256)   │    197,632 │ batch_normalizat… │
│ (Bidirectional)     │                   │            │                   │
├─────────────────────┼───────────────────┼────────────┼───────────────────┤
│ attention           │ (None, 60, 256)   │          0 │ bidirectional[0]… │
│ (Attention)         │                   │            │ bidirectional[0]… │
├─────────────────────┼───────────────────┼────────────┼───────────────────┤
│ add (Add)           │ (None, 60, 256)   │          0 │ bidirectional[0]… │
│                     │                   │            │ attention[0][0]   │
├─────────────────────┼───────────────────┼────────────┼───────────────────┤
│ layer_normalization │ (None, 60, 256)   │        512 │ add[0][0]         │
│ (LayerNormalizatio… │                   │            │                   │
├─────────────────────┼───────────────────┼────────────┼───────────────────┤
│ bidirectional_1     │ (None, 128)       │    164,352 │ layer_normalizat… │
│ (Bidirectional)     │                   │            │                   │
├─────────────────────┼───────────────────┼────────────┼───────────────────┤
│ dense (Dense)       │ (None, 128)       │     16,512 │ bidirectional_1[… │
├─────────────────────┼───────────────────┼────────────┼───────────────────┤
│ dropout (Dropout)   │ (None, 128)       │          0 │ dense[0][0]       │
├─────────────────────┼───────────────────┼────────────┼───────────────────┤
│ repeat_vector       │ (None, 10, 128)   │          0 │ dropout[0][0]     │
│ (RepeatVector)      │                   │            │                   │
├─────────────────────┼───────────────────┼────────────┼───────────────────┤
│ lstm_2 (LSTM)       │ (None, 10, 128)   │    131,584 │ repeat_vector[0]… │
├─────────────────────┼───────────────────┼────────────┼───────────────────┤
│ dropout_1 (Dropout) │ (None, 10, 128)   │          0 │ lstm_2[0][0]      │
├─────────────────────┼───────────────────┼────────────┼───────────────────┤
│ time_distributed    │ (None, 10, 64)    │      8,256 │ dropout_1[0][0]   │
│ (TimeDistributed)   │                   │            │                   │
├─────────────────────┼───────────────────┼────────────┼───────────────────┤
│ predictions         │ (None, 10, 3)     │        195 │ time_distributed… │
│ (TimeDistributed)   │                   │            │                   │
└─────────────────────┴───────────────────┴────────────┴───────────────────┘
 Total params: 1,597,771 (6.10 MB)
 Trainable params: 532,547 (2.03 MB)
 Non-trainable params: 128 (512.00 B)
 Optimizer params: 1,065,096 (4.06 MB)


Final Training Loss: 0.061796
Final Training Accuracy: 0.892865
Final Validation Loss: 0.061593
…
