Model: "functional"
┏━━━━━━━━━━━━━━━━━━━━━━━━━━━━━━━━━┳━━━━━━━━━━━━━━━━━━━━━━━━┳━━━━━━━━━━━━━━━┓
┃ Layer (type)                    ┃ Output Shape           ┃       Param # ┃
┡━━━━━━━━━━━━━━━━━━━━━━━━━━━━━━━━━╇━━━━━━━━━━━━━━━━━━━━━━━━╇━━━━━━━━━━━━━━━┩
│ encoder_input (InputLayer)      │ (None, 60, 5)          │             0 │
├─────────────────────────────────┼────────────────────────┼───────────────┤
│ encoder_lstm (LSTM)             │ (None, 128)            │        68,608 │
├─────────────────────────────────┼────────────────────────┼───────────────┤
│ dropout (Dropout)               │ (None, 128)            │             0 │
├─────────────────────────────────┼────────────────────────┼───────────────┤
│ batch_normalization             │ (None, 128)            │           512 │
│ (BatchNormalization)            │                        │               │
├─────────────────────────────────┼────────────────────────┼───────────────┤
│ repeat_vector (RepeatVector)    │ (None, 10, 128)        │             0 │
├─────────────────────────────────┼────────────────────────┼───────────────┤
│ decoder_lstm (LSTM)             │ (None, 10, 128)        │       131,584 │
├─────────────────────────────────┼────────────────────────┼───────────────┤
│ dropout_1 (Dropout)             │ (None, 10, 128)        │             0 │
├─────────────────────────────────┼────────────────────────┼───────────────┤
│ time_distributed                │ (None, 10, 64)         │         8,256 │
│ (TimeDistributed)               │                        │               │
├─────────────────────────────────┼────────────────────────┼───────────────┤
│ out (TimeDistributed)           │ (None, 10, 3)          │           195 │
└─────────────────────────────────┴────────────────────────┴───────────────┘
 Total params: 626,955 (2.39 MB)
 Trainable params: 208,899 (816.01 KB)
 Non-trainable params: 256 (1.00 KB)
 Optimizer params: 417,800 (1.59 MB)


Final Training Loss: 0.681017
Final Training Accuracy: 0.469735
Final Validation Loss: 0.847561
Final Validation Accuracy: 0.462451
