Model: "WideDeepMHA"
┏━━━━━━━━━━━━━━━━━━━━━┳━━━━━━━━━━━━━━━━━━━┳━━━━━━━━━━━━┳━━━━━━━━━━━━━━━━━━━┓
┃ Layer (type)        ┃ Output Shape      ┃    Param # ┃ Connected to      ┃
┡━━━━━━━━━━━━━━━━━━━━━╇━━━━━━━━━━━━━━━━━━━╇━━━━━━━━━━━━╇━━━━━━━━━━━━━━━━━━━┩
│ sequence_input      │ (None, 60, 5)     │          0 │ -                 │
│ (InputLayer)        │                   │            │                   │
├─────────────────────┼───────────────────┼────────────┼───────────────────┤
│ mha_layer           │ (None, 60, 5)     │        465 │ sequence_input[0… │
│ (MultiHeadAttentio… │                   │            │ sequence_input[0… │
├─────────────────────┼───────────────────┼────────────┼───────────────────┤
│ mha_dropout         │ (None, 60, 5)     │          0 │ mha_layer[0][0]   │
│ (Dropout)           │                   │            │                   │
├─────────────────────┼───────────────────┼────────────┼───────────────────┤
│ mha_residual_add    │ (None, 60, 5)     │          0 │ sequence_input[0… │
│ (Add)               │                   │            │ mha_dropout[0][0] │
├─────────────────────┼───────────────────┼────────────┼───────────────────┤
│ mha_layer_norm      │ (None, 60, 5)     │         10 │ mha_residual_add… │
│ (LayerNormalizatio… │                   │            │                   │
├─────────────────────┼───────────────────┼────────────┼───────────────────┤
│ ffn_dense_1 (Dense) │ (None, 60, 64)    │        384 │ mha_layer_norm[0… │
├─────────────────────┼───────────────────┼────────────┼───────────────────┤
│ ffn_projection      │ (None, 60, 64)    │        384 │ mha_layer_norm[0… │
│ (Dense)             │                   │            │                   │
├─────────────────────┼───────────────────┼────────────┼───────────────────┤
│ ffn_dropout         │ (None, 60, 64)    │          0 │ ffn_dense_1[0][0] │
│ (Dropout)           │                   │            │                   │
├─────────────────────┼───────────────────┼────────────┼───────────────────┤
│ ffn_residual_add    │ (None, 60, 64)    │          0 │ ffn_projection[0… │
│ (Add)               │                   │            │ ffn_dropout[0][0] │
├─────────────────────┼───────────────────┼────────────┼───────────────────┤
│ ffn_layer_norm      │ (None, 60, 64)    │        128 │ ffn_residual_add… │
│ (LayerNormalizatio… │                   │            │                   │
├─────────────────────┼───────────────────┼────────────┼───────────────────┤
│ sequence_global_av… │ (None, 64)        │          0 │ ffn_layer_norm[0… │
│ (GlobalAveragePool… │                   │            │                   │
├─────────────────────┼───────────────────┼────────────┼───────────────────┤
│ wide_input          │ (None, 8)         │          0 │ -                 │
│ (InputLayer)        │                   │            │                   │
├─────────────────────┼───────────────────┼────────────┼───────────────────┤
│ concat_wide_deep    │ (None, 72)        │          0 │ sequence_global_… │
│ (Concatenate)       │                   │            │ wide_input[0][0]  │
├─────────────────────┼───────────────────┼────────────┼───────────────────┤
│ combined_dense_1    │ (None, 64)        │      4,672 │ concat_wide_deep… │
│ (Dense)             │                   │            │                   │
├─────────────────────┼───────────────────┼────────────┼───────────────────┤
│ combined_dense_2    │ (None, 32)        │      2,080 │ combined_dense_1… │
│ (Dense)             │                   │            │                   │
├─────────────────────┼───────────────────┼────────────┼───────────────────┤
│ forecast_output     │ (None, 10)        │        330 │ combined_dense_2… │
│ (Dense)             │                   │            │                   │
└─────────────────────┴───────────────────┴────────────┴───────────────────┘
 Total params: 25,361 (99.07 KB)
 Trainable params: 8,453 (33.02 KB)
 Non-trainable params: 0 (0.00 B)
 Optimizer params: 16,908 (66.05 KB)


Final Training Loss: 0.000076
Final Test Loss : 0.000174
Final Test MAE : 0.009849
