Model: "sequential"
┏━━━━━━━━━━━━━━━━━━━━━━━━━━━━━━━━━┳━━━━━━━━━━━━━━━━━━━━━━━━┳━━━━━━━━━━━━━━━┓
┃ Layer (type)                    ┃ Output Shape           ┃       Param # ┃
┡━━━━━━━━━━━━━━━━━━━━━━━━━━━━━━━━━╇━━━━━━━━━━━━━━━━━━━━━━━━╇━━━━━━━━━━━━━━━┩
│ lstm (LSTM)                     │ (None, 128)            │        68,608 │
├─────────────────────────────────┼────────────────────────┼───────────────┤
│ dropout (Dropout)               │ (None, 128)            │             0 │
├─────────────────────────────────┼────────────────────────┼───────────────┤
│ repeat_vector (RepeatVector)    │ (None, 10, 128)        │             0 │
├─────────────────────────────────┼────────────────────────┼───────────────┤
│ lstm_1 (LSTM)                   │ (None, 10, 64)         │        49,408 │
├─────────────────────────────────┼────────────────────────┼───────────────┤
│ dropout_1 (Dropout)             │ (None, 10, 64)         │             0 │
├─────────────────────────────────┼────────────────────────┼───────────────┤
│ time_distributed                │ (None, 10, 3)          │           195 │
│ (TimeDistributed)               │                        │               │
└─────────────────────────────────┴────────────────────────┴───────────────┘
 Total params: 354,635 (1.35 MB)
 Trainable params: 118,211 (461.76 KB)
 Non-trainable params: 0 (0.00 B)
 Optimizer params: 236,424 (923.54 KB)


Final Training Loss: 1.097085
Final Test Loss: 1.057780
Final Test Accuracy: 0.891048
Final Test MAE: 0.437533
