Model: "functional"
┏━━━━━━━━━━━━━━━━━━━━━┳━━━━━━━━━━━━━━━━━━━┳━━━━━━━━━━━━┳━━━━━━━━━━━━━━━━━━━┓
┃ Layer (type)        ┃ Output Shape      ┃    Param # ┃ Connected to      ┃
┡━━━━━━━━━━━━━━━━━━━━━╇━━━━━━━━━━━━━━━━━━━╇━━━━━━━━━━━━╇━━━━━━━━━━━━━━━━━━━┩
│ input_window        │ (None, 60, 11)    │          0 │ -                 │
│ (InputLayer)        │                   │            │                   │
├─────────────────────┼───────────────────┼────────────┼───────────────────┤
│ not_equal           │ (None, 60, 11)    │          0 │ input_window[0][… │
│ (NotEqual)          │                   │            │                   │
├─────────────────────┼───────────────────┼────────────┼───────────────────┤
│ masking (Masking)   │ (None, 60, 11)    │          0 │ input_window[0][… │
├─────────────────────┼───────────────────┼────────────┼───────────────────┤
│ any (Any)           │ (None, 60)        │          0 │ not_equal[0][0]   │
├─────────────────────┼───────────────────┼────────────┼───────────────────┤
│ bidirectional       │ (None, 256)       │    143,360 │ masking[0][0],    │
│ (Bidirectional)     │                   │            │ any[0][0]         │
├─────────────────────┼───────────────────┼────────────┼───────────────────┤
│ dense (Dense)       │ (None, 64)        │     16,448 │ bidirectional[0]… │
├─────────────────────┼───────────────────┼────────────┼───────────────────┤
│ repeat_vector       │ (None, 10, 64)    │          0 │ dense[0][0]       │
│ (RepeatVector)      │                   │            │                   │
├─────────────────────┼───────────────────┼────────────┼───────────────────┤
│ lstm_1 (LSTM)       │ (None, 10, 64)    │     33,024 │ repeat_vector[0]… │
├─────────────────────┼───────────────────┼────────────┼───────────────────┤
│ time_distributed    │ (None, 10, 64)    │      4,160 │ lstm_1[0][0]      │
│ (TimeDistributed)   │                   │            │                   │
├─────────────────────┼───────────────────┼────────────┼───────────────────┤
│ out                 │ (None, 10, 3)     │        195 │ time_distributed… │
│ (TimeDistributed)   │                   │            │                   │
└─────────────────────┴───────────────────┴────────────┴───────────────────┘
 Total params: 591,563 (2.26 MB)
 Trainable params: 197,187 (770.26 KB)
 Non-trainable params: 0 (0.00 B)
 Optimizer params: 394,376 (1.50 MB)


Final Training Loss: 0.981557
Final Test Loss: 1.347922
Final Test Accuracy: 0.052170
