Model: "sequential"
┏━━━━━━━━━━━━━━━━━━━━━━━━━━━━━━━━━┳━━━━━━━━━━━━━━━━━━━━━━━━┳━━━━━━━━━━━━━━━┓
┃ Layer (type)                    ┃ Output Shape           ┃       Param # ┃
┡━━━━━━━━━━━━━━━━━━━━━━━━━━━━━━━━━╇━━━━━━━━━━━━━━━━━━━━━━━━╇━━━━━━━━━━━━━━━┩
│ lstm (LSTM)                     │ (None, 60, 64)         │        17,920 │
├─────────────────────────────────┼────────────────────────┼───────────────┤
│ dropout (Dropout)               │ (None, 60, 64)         │             0 │
├─────────────────────────────────┼────────────────────────┼───────────────┤
│ lstm_1 (LSTM)                   │ (None, 60, 64)         │        33,024 │
├─────────────────────────────────┼────────────────────────┼───────────────┤
│ dropout_1 (Dropout)             │ (None, 60, 64)         │             0 │
├─────────────────────────────────┼────────────────────────┼───────────────┤
│ time_distributed                │ (None, 60, 64)         │         4,160 │
│ (TimeDistributed)               │                        │               │
├─────────────────────────────────┼────────────────────────┼───────────────┤
│ time_distributed_1              │ (None, 60, 3)          │           195 │
│ (TimeDistributed)               │                        │               │
├─────────────────────────────────┼────────────────────────┼───────────────┤
│ lambda (Lambda)                 │ (None, 10, 3)          │             0 │
└─────────────────────────────────┴────────────────────────┴───────────────┘
 Total params: 165,899 (648.05 KB)
 Trainable params: 55,299 (216.01 KB)
 Non-trainable params: 0 (0.00 B)
 Optimizer params: 110,600 (432.04 KB)


Final Training Loss: 0.335362
Final Test Loss: 0.396220
Final Test Accuracy: 0.900000
