Model: "functional_1"
┏━━━━━━━━━━━━━━━━━━━━━━━━━━━━━━━━━┳━━━━━━━━━━━━━━━━━━━━━━━━┳━━━━━━━━━━━━━━━┓
┃ Layer (type)                    ┃ Output Shape           ┃       Param # ┃
┡━━━━━━━━━━━━━━━━━━━━━━━━━━━━━━━━━╇━━━━━━━━━━━━━━━━━━━━━━━━╇━━━━━━━━━━━━━━━┩
│ encoder_input (InputLayer)      │ (None, 60, 5)          │             0 │
├─────────────────────────────────┼────────────────────────┼───────────────┤
│ encoder_lstm (LSTM)             │ (None, 128)            │        68,608 │
├─────────────────────────────────┼────────────────────────┼───────────────┤
│ dropout_2 (Dropout)             │ (None, 128)            │             0 │
├─────────────────────────────────┼────────────────────────┼───────────────┤
│ batch_normalization_1           │ (None, 128)            │           512 │
│ (BatchNormalization)            │                        │               │
├─────────────────────────────────┼────────────────────────┼───────────────┤
│ repeat_vector_1 (RepeatVector)  │ (None, 10, 128)        │             0 │
├─────────────────────────────────┼────────────────────────┼───────────────┤
│ decoder_lstm (LSTM)             │ (None, 10, 128)        │       131,584 │
├─────────────────────────────────┼────────────────────────┼───────────────┤
│ dropout_3 (Dropout)             │ (None, 10, 128)        │             0 │
├─────────────────────────────────┼────────────────────────┼───────────────┤
│ time_distributed_1              │ (None, 10, 64)         │         8,256 │
│ (TimeDistributed)               │                        │               │
├─────────────────────────────────┼────────────────────────┼───────────────┤
│ out (TimeDistributed)           │ (None, 10, 3)          │           195 │
└─────────────────────────────────┴────────────────────────┴───────────────┘
 Total params: 209,155 (817.01 KB)
 Trainable params: 208,899 (816.01 KB)
 Non-trainable params: 256 (1.00 KB)


Final Training Loss: 0.753483
Final Training Accuracy: 0.369252
Final Validation Loss: 1.083495
Final Validation Accuracy: 0.382685
