Model: "sequential_1"
┏━━━━━━━━━━━━━━━━━━━━━━━━━━━━━━━━━┳━━━━━━━━━━━━━━━━━━━━━━━━┳━━━━━━━━━━━━━━━┓
┃ Layer (type)                    ┃ Output Shape           ┃       Param # ┃
┡━━━━━━━━━━━━━━━━━━━━━━━━━━━━━━━━━╇━━━━━━━━━━━━━━━━━━━━━━━━╇━━━━━━━━━━━━━━━┩
│ lstm_2 (LSTM)                   │ (None, 60, 64)         │        17,920 │
├─────────────────────────────────┼────────────────────────┼───────────────┤
│ dropout_2 (Dropout)             │ (None, 60, 64)         │             0 │
├─────────────────────────────────┼────────────────────────┼───────────────┤
│ lstm_3 (LSTM)                   │ (None, 60, 64)         │        33,024 │
├─────────────────────────────────┼────────────────────────┼───────────────┤
│ dropout_3 (Dropout)             │ (None, 60, 64)         │             0 │
├─────────────────────────────────┼────────────────────────┼───────────────┤
│ time_distributed_2              │ (None, 60, 64)         │         4,160 │
│ (TimeDistributed)               │                        │               │
├─────────────────────────────────┼────────────────────────┼───────────────┤
│ time_distributed_3              │ (None, 60, 3)          │           195 │
│ (TimeDistributed)               │                        │               │
├─────────────────────────────────┼────────────────────────┼───────────────┤
│ lambda_1 (Lambda)               │ (None, 10, 3)          │             0 │
└─────────────────────────────────┴────────────────────────┴───────────────┘
 Total params: 165,899 (648.05 KB)
 Trainable params: 55,299 (216.01 KB)
 Non-trainable params: 0 (0.00 B)
 Optimizer params: 110,600 (432.04 KB)


Final Training Loss: 1.099065
Final Test Loss: 1.226109
Final Test Accuracy: 0.966655
