Model: "functional"
┏━━━━━━━━━━━━━━━━━━━━━━━━━━━━━━━━━┳━━━━━━━━━━━━━━━━━━━━━━━━┳━━━━━━━━━━━━━━━┓
┃ Layer (type)                    ┃ Output Shape           ┃       Param # ┃
┡━━━━━━━━━━━━━━━━━━━━━━━━━━━━━━━━━╇━━━━━━━━━━━━━━━━━━━━━━━━╇━━━━━━━━━━━━━━━┩
│ input_layer (InputLayer)        │ (None, 60, 5)          │             0 │
├─────────────────────────────────┼────────────────────────┼───────────────┤
│ lstm (LSTM)                     │ (None, 128)            │        68,608 │
├─────────────────────────────────┼────────────────────────┼───────────────┤
│ dropout (Dropout)               │ (None, 128)            │             0 │
├─────────────────────────────────┼────────────────────────┼───────────────┤
│ repeat_vector (RepeatVector)    │ (None, 10, 128)        │             0 │
├─────────────────────────────────┼────────────────────────┼───────────────┤
│ lstm_1 (LSTM)                   │ (None, 10, 128)        │       131,584 │
├─────────────────────────────────┼────────────────────────┼───────────────┤
│ dropout_1 (Dropout)             │ (None, 10, 128)        │             0 │
├─────────────────────────────────┼────────────────────────┼───────────────┤
│ time_distributed                │ (None, 10, 64)         │         8,256 │
│ (TimeDistributed)               │                        │               │
├─────────────────────────────────┼────────────────────────┼───────────────┤
│ time_distributed_1              │ (None, 10, 3)          │           195 │
│ (TimeDistributed)               │                        │               │
└─────────────────────────────────┴────────────────────────┴───────────────┘
 Total params: 625,931 (2.39 MB)
 Trainable params: 208,643 (815.01 KB)
 Non-trainable params: 0 (0.00 B)
 Optimizer params: 417,288 (1.59 MB)


Final Training Loss: 0.802484
Final Test Loss: 0.321050
Final Test Accuracy: 0.941639
