Model: "reversal_classifier"
┏━━━━━━━━━━━━━━━━━━━━━━━━━━━━━━━━━┳━━━━━━━━━━━━━━━━━━━━━━━━┳━━━━━━━━━━━━━━━┓
┃ Layer (type)                    ┃ Output Shape           ┃       Param # ┃
┡━━━━━━━━━━━━━━━━━━━━━━━━━━━━━━━━━╇━━━━━━━━━━━━━━━━━━━━━━━━╇━━━━━━━━━━━━━━━┩
│ input_sequence (InputLayer)     │ (None, 60, 5)          │             0 │
├─────────────────────────────────┼────────────────────────┼───────────────┤
│ bilstm_1 (Bidirectional)        │ (None, 60, 256)        │       137,216 │
├─────────────────────────────────┼────────────────────────┼───────────────┤
│ layer_normalization             │ (None, 60, 256)        │           512 │
│ (LayerNormalization)            │                        │               │
├─────────────────────────────────┼────────────────────────┼───────────────┤
│ bilstm_2 (Bidirectional)        │ (None, 60, 128)        │       164,352 │
├─────────────────────────────────┼────────────────────────┼───────────────┤
│ layer_normalization_1           │ (None, 60, 128)        │           256 │
│ (LayerNormalization)            │                        │               │
├─────────────────────────────────┼────────────────────────┼───────────────┤
│ global_average_pooling1d        │ (None, 128)            │             0 │
│ (GlobalAveragePooling1D)        │                        │               │
├─────────────────────────────────┼────────────────────────┼───────────────┤
│ repeat_vector (RepeatVector)    │ (None, 10, 128)        │             0 │
├─────────────────────────────────┼────────────────────────┼───────────────┤
│ decoder_lstm (LSTM)             │ (None, 10, 64)         │        49,408 │
├─────────────────────────────────┼────────────────────────┼───────────────┤
│ layer_normalization_2           │ (None, 10, 64)         │           128 │
│ (LayerNormalization)            │                        │               │
├─────────────────────────────────┼────────────────────────┼───────────────┤
│ td_dense_1 (TimeDistributed)    │ (None, 10, 32)         │         2,080 │
├─────────────────────────────────┼────────────────────────┼───────────────┤
│ dropout (Dropout)               │ (None, 10, 32)         │             0 │
├─────────────────────────────────┼────────────────────────┼───────────────┤
│ td_dense_2 (TimeDistributed)    │ (None, 10, 16)         │           528 │
├─────────────────────────────────┼────────────────────────┼───────────────┤
│ forecast_output                 │ (None, 10, 3)          │            51 │
│ (TimeDistributed)               │                        │               │
└─────────────────────────────────┴────────────────────────┴───────────────┘
 Total params: 1,063,595 (4.06 MB)
 Trainable params: 354,531 (1.35 MB)
 Non-trainable params: 0 (0.00 B)
 Optimizer params: 709,064 (2.70 MB)


Final Training Loss: 1.034975
Final Training Accuracy: 0.407903
Final Validation Loss: 0.978467
Final Validation Accuracy: 0.541216
