Model: "sequential"
┏━━━━━━━━━━━━━━━━━━━━━━━━━━━━━━━━━┳━━━━━━━━━━━━━━━━━━━━━━━━┳━━━━━━━━━━━━━━━┓
┃ Layer (type)                    ┃ Output Shape           ┃       Param # ┃
┡━━━━━━━━━━━━━━━━━━━━━━━━━━━━━━━━━╇━━━━━━━━━━━━━━━━━━━━━━━━╇━━━━━━━━━━━━━━━┩
│ bidirectional (Bidirectional)   │ (None, 60, 256)        │       137,216 │
├─────────────────────────────────┼────────────────────────┼───────────────┤
│ dropout (Dropout)               │ (None, 60, 256)        │             0 │
├─────────────────────────────────┼────────────────────────┼───────────────┤
│ bidirectional_1 (Bidirectional) │ (None, 128)            │       164,352 │
├─────────────────────────────────┼────────────────────────┼───────────────┤
│ dropout_1 (Dropout)             │ (None, 128)            │             0 │
├─────────────────────────────────┼────────────────────────┼───────────────┤
│ repeat_vector (RepeatVector)    │ (None, 10, 128)        │             0 │
├─────────────────────────────────┼────────────────────────┼───────────────┤
│ lstm_2 (LSTM)                   │ (None, 10, 64)         │        49,408 │
├─────────────────────────────────┼────────────────────────┼───────────────┤
│ dropout_2 (Dropout)             │ (None, 10, 64)         │             0 │
├─────────────────────────────────┼────────────────────────┼───────────────┤
│ time_distributed                │ (None, 10, 32)         │         2,080 │
│ (TimeDistributed)               │                        │               │
├─────────────────────────────────┼────────────────────────┼───────────────┤
│ time_distributed_1              │ (None, 10, 3)          │            99 │
│ (TimeDistributed)               │                        │               │
└─────────────────────────────────┴────────────────────────┴───────────────┘
 Total params: 1,059,467 (4.04 MB)
 Trainable params: 353,155 (1.35 MB)
 Non-trainable params: 0 (0.00 B)
 Optimizer params: 706,312 (2.69 MB)


Final Training Loss: 0.184651
Final Training Accuracy: 0.524264
Final Validation Loss: 0.881939
Final Validation Accuracy: 0.454768
