Model: "functional"
┏━━━━━━━━━━━━━━━━━━━━━┳━━━━━━━━━━━━━━━━━━━┳━━━━━━━━━━━━┳━━━━━━━━━━━━━━━━━━━┓
┃ Layer (type)        ┃ Output Shape      ┃    Param # ┃ Connected to      ┃
┡━━━━━━━━━━━━━━━━━━━━━╇━━━━━━━━━━━━━━━━━━━╇━━━━━━━━━━━━╇━━━━━━━━━━━━━━━━━━━┩
│ input_layer         │ (None, 60, 10)    │          0 │ -                 │
│ (InputLayer)        │                   │            │                   │
├─────────────────────┼───────────────────┼────────────┼───────────────────┤
│ dense (Dense)       │ (None, 60, 64)    │        704 │ input_layer[0][0] │
├─────────────────────┼───────────────────┼────────────┼───────────────────┤
│ multi_head_attenti… │ (None, 60, 64)    │     16,640 │ dense[0][0],      │
│ (MultiHeadAttentio… │                   │            │ dense[0][0]       │
├─────────────────────┼───────────────────┼────────────┼───────────────────┤
│ add (Add)           │ (None, 60, 64)    │          0 │ multi_head_atten… │
│                     │                   │            │ dense[0][0]       │
├─────────────────────┼───────────────────┼────────────┼───────────────────┤
│ layer_normalization │ (None, 60, 64)    │        128 │ add[0][0]         │
│ (LayerNormalizatio… │                   │            │                   │
├─────────────────────┼───────────────────┼────────────┼───────────────────┤
│ dense_1 (Dense)     │ (None, 60, 64)    │      4,160 │ layer_normalizat… │
├─────────────────────┼───────────────────┼────────────┼───────────────────┤
│ dense_2 (Dense)     │ (None, 60, 64)    │      4,160 │ dense_1[0][0]     │
├─────────────────────┼───────────────────┼────────────┼───────────────────┤
│ add_1 (Add)         │ (None, 60, 64)    │          0 │ dense_2[0][0],    │
│                     │                   │            │ layer_normalizat… │
├─────────────────────┼───────────────────┼────────────┼───────────────────┤
│ layer_normalizatio… │ (None, 60, 64)    │        128 │ add_1[0][0]       │
│ (LayerNormalizatio… │                   │            │                   │
├─────────────────────┼───────────────────┼────────────┼───────────────────┤
│ global_average_poo… │ (None, 64)        │          0 │ layer_normalizat… │
│ (GlobalAveragePool… │                   │            │                   │
├─────────────────────┼───────────────────┼────────────┼───────────────────┤
│ dense_3 (Dense)     │ (None, 10)        │        650 │ global_average_p… │
└─────────────────────┴───────────────────┴────────────┴───────────────────┘
 Total params: 79,712 (311.38 KB)
 Trainable params: 26,570 (103.79 KB)
 Non-trainable params: 0 (0.00 B)
 Optimizer params: 53,142 (207.59 KB)


Final Training Loss: 0.000136
Final Test Loss: 0.000347
